model/keypoint_classifier/keypoint_classifier.tflite (tflite, 6500 bytes, 6 tensors)

sequential/dense/BiasAdd/ReadVariableOp f4 [20]
0	0xbea1324b	-0.31483683
1	0xbcdb884e	-0.026798394
2	0xbef35d1d	-0.47531977
3	0xbd8a12fb	-0.067419015
4	0xbecc3aae	-0.3988852
5	0xbf0b7cd2	-0.54487336
6	0xbeb87e99	-0.36034086
7	0xbf4f6f78	-0.8102946
8	0xbf1465e9	-0.57968
9	0xbe9d41cf	-0.3071427
10	0xbeb2c7d0	-0.3491807
11	0xbeb3847b	-0.35062012
12	0xbec6541c	-0.38736045
13	0xbf12a99b	-0.5729005
14	0xbf58d946	-0.8470653
15	0xbf1b6433	-0.60699767
16	0xbeb7a17e	-0.35865396
17	0xbe987886	-0.29779452
18	0xbf439d82	-0.7641221
19	0xbf39baac	-0.72550464

sequential/dense_2/BiasAdd/ReadVariableOp f4 [3]
0	0xbeb23495	-0.34805742
1	0x3d04fe17	0.03246888
2	0x3ec5b75a	0.3861645

sequential/dense_1/BiasAdd/ReadVariableOp f4 [10]
0	0x3e4ca598	0.19985044
1	0x3f3a3a75	0.7274545
2	0x3ee8a787	0.45440313
3	0x3e156512	0.14589337
4	0xbe501761	-0.20321418
5	0x3e21e7d4	0.15811092
6	0x3f25e6a0	0.6480503
7	0x3d7868bc	0.060646757
8	0xbde139fb	-0.10997387
9	0xbe0edfb2	-0.1395252

sequential/dense/MatMul f4 [20, 42]
0	0xbe80850c	-0.25101507
1	0xbd80504c	-0.062653154
2	0xbd71254b	-0.058873456
3	0x3cb04ac5	0.021520028
4	0xbe1ddc3e	-0.15416047
5	0xbcf7ba69	-0.030240254
6	0xbeecbcbf	-0.46237752
7	0xbe4e88a0	-0.20169306
8	0xbf16497c	-0.5870588
9	0xbe49b290	-0.19697022
10	0x3d2a25b3	0.04153986
11	0x3e914495	0.28372636
12	0x39d0be4c	0.00039814634
13	0x3c9acd0c	0.018896602
14	0x3d6cdc71	0.057827417
15	0xbcd70830	-0.026249021
16	0x3d284cd0	0.04108888
17	0x3cb8d74e	0.022563603
18	0xbc927348	-0.017877236
19	0x3e6d2783	0.23159604
20	0x3cdb8f5d	0.02680176
21	0x3d887b08	0.06664091
22	0x3ea0be7d	0.3139533
23	0xbd87c9eb	-0.0663031
24	0x3e851151	0.25989774
25	0x3d68e015	0.056854326
26	0xbe39fa51	-0.18161894
27	0x3e6698af	0.22519182
28	0xbd064e4c	-0.032789513
29	0xbc69b28f	-0.014263763
30	0x3ecd0ffc	0.40051258
31	0xbe62d676	-0.22152123
32	0x3f2238b4	0.6336777
33	0x3ed4503c	0.41467464
34	0xbe23b65b	-0.15987532
35	0x3ea0014a	0.31250983
36	0x3ba4a4eb	0.0050245426
37	0x3c9a99bc	0.018872134
38	0x3d1b7d48	0.037961274
39	0xbe00b384	-0.1256848
40	0x3e899357	0.26870224
41	0xbe612f0a	-0.219906
42	0x3e99db60	0.30050182
43	0x3dd8b164	0.105807096
44	0x3e376d49	0.17912783
45	0x3dab2c18	0.083580196
46	0xbde44d65	-0.11147574
47	0x3dfa7e2b	0.12231096
48	0xbc01668e	-0.007897986
49	0x3dcbea29	0.09956772
50	0xba1f9418	-0.00060874363
51	0x3c14f21c	0.0090909265
52	0xbe2c62ca	-0.1683456
53	0xbc959e75	-0.018264035
54	0xbe2aa105	-0.16662987
55	0x3cd3de94	0.02586297
56	0xbcafab1f	-0.021443902
57	0xbeada326	-0.33913535
58	0xbed001a9	-0.40626267
59	0xbefd95c9	-0.4952834
60	0xbdfd499c	-0.123675555
61	0x3d7e1c35	0.06203862
62	0xbe0dd903	-0.13852315
63	0x3d3e8433	0.046512794
64	0x3d7dc736	0.06195756
65	0x3e3a33b6	0.18183789
66	0x3ecd46e4	0.40093148
67	0x3e8df551	0.27726224
68	0xbdb00d23	-0.08596256
69	0xbd89abd9	-0.067222305
70	0x3d42ebba	0.047588088
71	0x3d0e19ac	0.03469245
72	0x3c0c1828	0.008550681
73	0x3ed11cf0	0.4084239
74	0x3f3c3b5c	0.73528075
75	0x3ec61026	0.38684195
76	0xbe91fac4	-0.2851163
77	0x3d219d6e	0.039456777
78	0xbe29aef7	-0.1657065
79	0xba549f65	-0.000811091
80	0x3e4c0c66	0.19926605
81	0x3ebbcfa1	0.36681846
82	0x3ece48ec	0.4029001
83	0x3f0b33f1	0.5437613
84	0xbd653af0	-0.05596441
85	0xbe886f4d	-0.26647416
86	0x3e04c65a	0.1296629
87	0x3f009c43	0.50238436
88	0x3d9a3d2b	0.07531198
89	0x3e7e6430	0.24842906
90	0x3e991365	0.2989761
91	0x3e9564dc	0.29178512
92	0x3ea5aef5	0.32360044
93	0x3e8aaec3	0.27086458
94	0xbe28185a	-0.1641554
95	0xbda226a0	-0.079175234
96	0xbcc0911d	-0.023506695
97	0x3d87bd70	0.06627929
98	0x3d15d8c2	0.03658367
99	0x3bf41703	0.0074490323
100	0x3d773af6	0.060358964
101	0xbd8de681	-0.06928731
102	0x3d7829d3	0.06058676
103	0x3d87cf08	0.06631285
104	0xbc4ac263	-0.012375447
105	0x3e0e7f24	0.13915688
106	0xbe5db5c7	-0.21651374
107	0xbd43f776	-0.04784342
108	0xbe6c1902	-0.23056415
109	0xbf12156d	-0.57063943
110	0x3e6f22f0	0.23353171
111	0xbd1135f3	-0.03545184
112	0xbd8ef186	-0.06979661
113	0x3de38901	0.11110116
114	0xbe70fab2	-0.23533133
115	0xbea560d1	-0.32300428
116	0xbef77d41	-0.4833775
117	0xbf0978bb	-0.53699845
118	0x3e6b5dc3	0.22984986
119	0x3d873a32	0.06602897
120	0xbd09faf3	-0.03368659
121	0x3e121b0c	0.1426813
122	0xbe5a0acd	-0.21293183
123	0xbe355e4f	-0.17711757
124	0xbf1d22f8	-0.61381483
125	0xbf082e47	-0.53195614
126	0x3ccc97a0	0.024974644
127	0xbe89fece	-0.26952213
128	0xbea83595	-0.3285338
129	0x3e435872	0.19076708
130	0xbdf2964f	-0.11845075
131	0x3ddb5e96	0.107114
132	0xbd9c059b	-0.07618257
133	0x3dafba86	0.085804984
134	0xbd7d1db0	-0.06179589
135	0x3d971cf0	0.07378566
136	0xbdd4bd87	-0.10387712
137	0x3c217134	0.00985365
138	0xbde013dc	-0.10941288
139	0xbc8bc14d	-0.017059946
140	0xbc1779f2	-0.009245383
141	0xbe877133	-0.26453552
142	0x3efb530d	0.490868
143	0xbf0f4139	-0.55958897
144	0xbddde865	-0.10835341
145	0x3d11de6e	0.035612516
146	0xbd356cbb	-0.044293147
147	0xbc118454	-0.008881647
148	0x3d874b8a	0.06606205
149	0x3e4429a2	0.19156507
150	0x3cac6cdb	0.021048
151	0x3eac3439	0.33633593
152	0xbd1fd034	-0.039016917
153	0xbd0c52fd	-0.03425883
154	0xbdf798f3	-0.120897196
155	0x3c00114c	0.007816624
156	0x3d51d8a0	0.05123198
157	0x3e7464f6	0.23866639
158	0x3e60186b	0.21884315
159	0x3ea06487	0.31326696
160	0xbc108192	-0.0088199545
161	0xbcc1046b	-0.023561677
162	0x3d029ba1	0.0318867
163	0x3c2f11f3	0.010685432
164	0x3cf6f495	0.030145923
165	0x3e29d461	0.16584922
166	0x3d956275	0.0729417
167	0x3eb165dc	0.34648025
168	0x3d9c9f78	0.07647604
169	0x3c9209d0	0.017826945
170	0x3d621268	0.055193335
171	0x3ec8b0fe	0.39197534
172	0x3dc37390	0.09543526
173	0x3e8e1daf	0.27757022
174	0xbc7aa7b9	-0.015298777
175	0x3e867476	0.26260728
176	0x3da5f543	0.081034206
177	0x3ec93cdb	0.39304242
178	0xbd46fcdc	-0.04858099
179	0x3ce38f32	0.027778242
180	0xbcaf59d9	-0.021405147
181	0x3d77fb31	0.06054229
182	0x3d9ded8d	0.07711325
183	0x3db945b1	0.09046496
184	0x3da5f8ef	0.08104121
185	0x3d79e9c4	0.061013952
186	0x3d62ad6a	0.05534116
187	0xbd2e3109	-0.042527232
188	0xbc0862c1	-0.008324326
189	0x3dfdd938	0.12394947
190	0xbc72a8ae	-0.014810724
191	0xbe689195	-0.22711785
192	0xbdfe7ba8	-0.12425929
193	0xbf1c6edc	-0.6110666
194	0x3d8b1c9e	0.06792568
195	0xbc4de7f6	-0.012567511
196	0x3cea444d	0.028597021
197	0x3cfffeb5	0.031249383
198	0xbe95fc8b	-0.29294237
199	0xbec97456	-0.3934657
200	0xbe83d0f3	-0.25745353
201	0xbf6a81fb	-0.91604584
202	0x3dd2db49	0.102957316
203	0x3c233310	0.009960905
204	0xbbdfadd8	-0.0068261437
205	0x3d25e8ac	0.040505096
206	0xbe24135e	-0.16023013
207	0xbe8794cf	-0.2648072
208	0xbec8835c	-0.3916272
209	0xbf3d05e2	-0.738371
210	0xbe820255	-0.25392404
211	0xbe4f8789	-0.20266546
212	0x3c9b2e87	0.018943084
213	0xbdc29c22	-0.09502436
214	0xbd9b1492	-0.07572283
215	0xbdbe6b56	-0.092978165
216	0xbd8120a8	-0.06305057
217	0xbe378adf	-0.17924069
218	0xbcb75d37	-0.022383315
219	0xbe42e527	-0.19032727
220	0xbef01880	-0.46893692
221	0xbd8767e9	-0.06611616
222	0x3b63988e	0.003472838
223	0xbd1be0dc	-0.03805624
224	0x3e0bc74a	0.13650241
225	0x3d96f0c4	0.07370141
226	0x3e3a7e4c	0.18212241
227	0x3d2879d3	0.041131806
228	0xbee26035	-0.44214025
229	0x3dee79e3	0.11644342
230	0x3cd06937	0.025440795
231	0xbd69a8a3	-0.05704559
232	0x3e2966ea	0.16543165
233	0x3e0c1966	0.13681564
234	0x3e18ad70	0.14909911
235	0x3dd82cfe	0.105554566
236	0xbf15dbd3	-0.5853855
237	0xbe8b35ac	-0.27189386
238	0xbdaac76f	-0.0833882
239	0xbdb851c2	-0.08999969
240	0x3e3de587	0.18544589
241	0x3de67059	0.11251897
242	0x3e0d75cb	0.13814466
243	0x3e0300be	0.12793252
244	0xbf089cf5	-0.533645
245	0xbf1ad5bd	-0.6048239
246	0xbdc0c3c9	-0.09412343
247	0xbe9d0108	-0.3066485
248	0x3dd9739d	0.106177546
249	0x3c5fc73a	0.013658339
250	0x3e115181	0.14191248
251	0x3e055627	0.13021146
252	0xbe3729a1	-0.17886974
253	0x3e6a7f64	0.22900158
254	0xbe1e1d1f	-0.15440796
255	0xbd8aea44	-0.06782964

sequential/dense_1/MatMul f4 [10, 20]
0	0xbde206d3	-0.11036458
1	0xbea3b3c2	-0.31973082
2	0xbd0bd3d7	-0.034137573
3	0xbef825b7	-0.48466274
4	0xbd2f0bc1	-0.04273582
5	0x3efe968a	0.49724227
6	0xbe5be08d	-0.21472378
7	0x3dc4c184	0.09607223
8	0x3f39cb04	0.725754
9	0x3c7c085f	0.015382855
10	0x3e5ec28d	0.21753903
11	0xbf686a71	-0.90787417
12	0xbded6c7d	-0.11592958
13	0x3edc1380	0.42983627
14	0x3f769a74	0.96329427
15	0x3eeb3748	0.45940614
16	0x3c35494c	0.011064839
17	0xbec68ace	-0.38777775
18	0xbea70b89	-0.32625988
19	0x3d830c83	0.06398871
20	0xbeb7f02c	-0.35925424
21	0x3e815783	0.2526208
22	0xbf66be7a	-0.90134394
23	0x3e7e11b5	0.24811442
24	0xbf5520fc	-0.83253455
25	0x3ea48245	0.32130638
26	0x3dc56d89	0.09640033
27	0xbed05dad	-0.4069647
28	0x3ee8d4bb	0.454748
29	0xbf929f0d	-1.1454788
30	0xbebfcb58	-0.37459826
31	0x3f10d509	0.56575066
32	0x3ee7286b	0.45148024
33	0xbcd26a92	-0.025685582
34	0xbf101f2f	-0.5629758
35	0xbf39d4d8	-0.725904
36	0xbeba38bd	-0.36371413
37	0xbf3cfb30	-0.7382078
38	0xbdeb4361	-0.11487461
39	0xbe91c114	-0.2846762
40	0xbf4817b4	-0.7816117
41	0x3e55330f	0.20820259
42	0xbf296b85	-0.66179687
43	0x3e80c2f1	0.25148728
44	0x3e304899	0.17215194
45	0x3d949fee	0.07257067
46	0xbc958637	-0.018252475
47	0xbe5cc793	-0.21560507
48	0x3e2fbd30	0.17162013
49	0xbf674fe3	-0.9035627
50	0x3e404bb8	0.18778884
51	0x3f7ca5f3	0.9869072
52	0x3d5b8540	0.053593874
53	0xbef140b6	-0.47119683
54	0xbeb5e68b	-0.35527453
55	0xbee412d7	-0.44545624
56	0xbeb1e7c2	-0.3474713
57	0xbeaba6e7	-0.33525774
58	0xbed1fc00	-0.41012573
59	0xbeb515aa	-0.3536809
60	0x3f1028a9	0.5631204
61	0x3ed2675b	0.4109448
62	0x3ebb1060	0.3653593
63	0x3e5e5d0b	0.2171518
64	0x3e85eb92	0.26156288
65	0xbe673961	-0.22580482
66	0x3f10ade6	0.5651535
67	0xbeb71c75	-0.35763898
68	0x3da60627	0.08106642
69	0x3d63471d	0.05548774
70	0x3edf4cb5	0.4361321
71	0x3f28fcee	0.6601094
72	0x3d09c6ff	0.033637043
73	0xbe2e4c75	-0.17021354
74	0xbe6f81e9	-0.233894
75	0x3e93c36f	0.28860041
76	0x3b0f61e9	0.0021878427
77	0x3ea62880	0.32452774
78	0xbeaa98c0	-0.33319664
79	0xbd60d52f	-0.054890808
80	0x3e651f19	0.22375144
81	0x3ea8bd99	0.32957152
82	0xbf480fc4	-0.78149056
83	0x3e7ee35f	0.24891423
84	0x3f16df37	0.5893435
85	0x3ec94ebf	0.3931789
86	0x3f48315c	0.78200316
87	0xbed0201b	-0.40649495
88	0xbe263a48	-0.1623317
89	0xbf11d656	-0.56967676
90	0x3e4bbc1d	0.19895978
91	0xbd92edc8	-0.071742594
92	0x3d5ff6d5	0.054678757
93	0x3e7fa321	0.24964572
94	0x3e251431	0.16120984
95	0xbe11bac1	-0.14231397
96	0x3f373bf5	0.7157586
97	0x3d825d70	0.06365478
98	0x3e7e83d4	0.24854976
99	0xbe4674f0	-0.19380546
100	0x3f0948b7	0.5362658
101	0xbd5921a3	-0.053010594
102	0x3ead92a3	0.33900937
103	0xbe43acbd	-0.19108863
104	0xbf4d002e	-0.800784
105	0xbea20414	-0.31643736
106	0xbd9a6214	-0.07538238
107	0x3e147c68	0.14500582
108	0x3cb3d58e	0.021952417
109	0x3efe9e1e	0.4973001
110	0xbf693da2	-0.9110967
111	0x3ce96fb4	0.028495647
112	0xbd5cc96f	-0.05390304
113	0xbdf1b676	-0.1180238
114	0xbc679032	-0.0141335
115	0x3eaa42ad	0.33253995
116	0x3f22823d	0.6347998
117	0xbf281421	-0.65655714
118	0xbdfce5d8	-0.12348527
119	0x3baa8c77	0.005204733
120	0x3e61c88f	0.22049163
121	0x3ea1a115	0.31568208
122	0xbe71fafe	-0.23630902
123	0xbdebdeb5	-0.11517087
124	0x3cc9d95f	0.024639783
125	0x3f8b83f0	1.0899639
126	0x3d765b87	0.06014588
127	0x3ea47bde	0.32125753
128	0x3f2b8059	0.6699272
129	0xbe89eef5	-0.26940122
130	0xbe6b54fa	-0.22981635
131	0xbf050317	-0.5195784
132	0x3f5a211c	0.8520677
133	0x3f358b65	0.70915824
134	0x3e15b0d9	0.14618243
135	0xbe535867	-0.20639192
136	0xbe66162f	-0.224694
137	0xbe8df645	-0.2772695
138	0x3f263bb9	0.6493488
139	0x3ef93669	0.48674324
140	0x3e950b27	0.2911007
141	0xbe40a7a3	-0.18813948
142	0x3f351ad2	0.7074405
143	0xbe258188	-0.16162694
144	0x3e86615b	0.2624615
145	0x3ea28be0	0.3174734
146	0xbefab29c	-0.48964393
147	0x3f3051a7	0.6887459
148	0x3b71bcc5	0.0036886197
149	0xbea5da6a	-0.323932
150	0x3f28fe2e	0.6601285
151	0xbe412e79	-0.18865384
152	0xbcef1bba	-0.029188026
153	0xbf14727d	-0.57987195
154	0xbe2cab71	-0.16862275
155	0xbee43f7d	-0.44579688
156	0x3ec61dc6	0.3869459
157	0x3ed93415	0.42422548
158	0x3f11ce56	0.5695547
159	0x3f4467aa	0.7672068
160	0x3eb9154f	0.3614907
161	0x3e8a4443	0.27005205
162	0xbe2b9c90	-0.16758943
163	0x3e4c3710	0.1994288
164	0x3ec9d8b8	0.39423156
165	0x3ce1f2d6	0.027581614
166	0x3e90ad34	0.28257143
167	0x3ededf5a	0.4352978
168	0x3d15281f	0.036415216
169	0x3e9b52c6	0.3033659
170	0x3f52a2dc	0.82279754
171	0xbe1ee657	-0.15517555
172	0x3b9deb5c	0.004819317
173	0x3ed8859e	0.42289442
174	0xbe41afc1	-0.18914701
175	0x3ec8ab76	0.39193314
176	0xbef835c1	-0.4847851
177	0x3f0d760b	0.55258244
178	0x3e92b676	0.28654832
179	0x3ee4efaf	0.44714114
180	0x3ef34352	0.475123
181	0x3ed38944	0.41315663
182	0xbf25157d	-0.64485914
183	0x3e8b1455	0.2716395
184	0x3f065dc0	0.524868
185	0xbf22b674	-0.6355965
186	0x3f36a259	0.7134147
187	0xbe1cf0e2	-0.15326265
188	0x3e4efe79	0.20214261
189	0x3ed98c14	0.42489684
190	0x3f4edef1	0.8080893
191	0xbe8ed4cf	-0.27896735
192	0x3d1119a5	0.035424847
193	0x3ea69244	0.32533467
194	0x3d94cd60	0.07265735
195	0xbf2a16f2	-0.6644126
196	0x3f14f4af	0.5818586
197	0x3edf5ef7	0.4362714
198	0xbe97c791	-0.29644445
199	0x3ec5fc36	0.38668984

sequential/dense_2/MatMul f4 [3, 10]
0	0xbf024dec	-0.5090015
1	0xbe60b068	-0.21942294
2	0xbe4ee1b5	-0.20203288
3	0x3f6f8751	0.9356585
4	0x3e3ba710	0.18325448
5	0x3f7da95c	0.99086547
6	0xbf9d9a75	-1.2312762
7	0x3f11a617	0.5689406
8	0x3f011e44	0.50436807
9	0x3ed098ca	0.4074157
10	0x3f6fa970	0.93617916
11	0xbf230566	-0.6368011
12	0xbf54b99c	-0.8309572
13	0xbf43d477	-0.7649607
14	0xbe6c179c	-0.23055881
15	0xbf00d9a4	-0.50332093
16	0x3f16954b	0.58821553
17	0x3f2a7527	0.6658501
18	0x3e63fc0e	0.2226412
19	0xbe1fa671	-0.15590836
20	0xbeaf7048	-0.3426535
21	0x3f80f398	1.0074339
22	0x3eb43009	0.35192898
23	0x3ec1415a	0.37745172
24	0xbfa93ecb	-1.3222288
25	0xbfcf9fff	-1.6220702
26	0x3e46f01c	0.19427532
27	0xbfbbfffc	-1.4687495
28	0xbf420a96	-0.757974
29	0xbf548ac1	-0.8302422
