model/point_history_classifier/point_history_classifier.tflite (tflite, 6432 bytes, 6 tensors)

sequential/dense/BiasAdd/ReadVariableOp f4 [24]
00000000: 4935 a7bd 946a 70bd fda5 81bd f015 f7bc
00000010: cf1b 15be a4b0 b1bc eb85 babd ce57 0bbd
00000020: 23e7 d2bc 1b24 abbd a5d7 2fbd 4058 dcbc
00000030: 5634 d3bd ce61 bcbd 3172 04bd 7b96 2bbd
00000040: 0724 51bd 8d5d 98bd ce17 f2bd 8329 06bd
00000050: d557 00bd 7348 cebd fd19 c5bd 1dfd 8ebd
-0.0816446 -0.05869539 -0.06330488 -0.030161828 -0.1456139 -0.021690674 -0.09107574 -0.034019284
-0.02574498 -0.08356496 -0.042930264 -0.02689755 -0.10312717 -0.09198342 -0.032335464 -0.041891556
-0.05105975 -0.074397184 -0.11820947 -0.032754432 -0.031333763 -0.10072412 -0.096240975 -0.06981871

sequential/dense_2/BiasAdd/ReadVariableOp f4 [4]
00000000: 3229 ce3e e638 ffbe eaa4 d03e e9b1 f6be
0.40265805 -0.49848098 0.4075082 -0.4818261

sequential/dense_1/BiasAdd/ReadVariableOp f4 [10]
00000000: ba47 ccb9 f667 483a 7c8f 663b 378e c63b
00000010: d57c 003e 0077 983a 98fb 25b7 7a90 833e
00000020: 15d2 293f 3257 733f
-0.00038963353 0.0007644886 0.0035180738 0.006059434 0.1254762 0.0011632144 -9.893345e-06 0.25696164
0.66336185 0.95054924

sequential/dense/MatMul f4 [24, 32]
00000000: b477 9d3e 304a 5ebd 299f 233f ac24 5bbf
00000010: 825a 893f 00e4 3ebf 9a77 363f 0a6b f5be
00000020: f8d7 613f 67c7 bcbe 41af 5c3f db7f adbe
00000030: 2767 013f f40f 883e 67f7 cc3e 28e5 fb3e
00000040: cf4d 003f eba7 d33e 9f39 713e 4000 133f
00000050: dab5 94be 71cf 1a3f 4d7c 09be bf2e b83e
00000060: e396 a3bd 5392 c73e 2211 11bf 7e99 ab3e
00000070: 5338 22bf a7ce d23e a452 4abf 011e ca3e
00000080: daae 0cbe 7a08 8d3e 4c83 a6bf cd78 883e
00000090: bc2f 68bf 682a 003f 5a0d 6bbf b64b 3c3f
000000a0: 0178 c9be 2bb0 813e 5138 1fbf a874 e63e
000000b0: 6dad 04bf 50d2 053f daff 3cbe dc6c 033f
000000c0: 0095 043f f730 b43e 85e2 3a3f bbdb b13e
000000d0: 1e71 513f 3b16 de3c 8a8e 1f3f 380f fe3d
000000e0: b727 4e3f 97c9 01be 4bde 2e3f b34b e6bd
000000f0: 7840 c73e 5945 e43d 08e5 bcbc be4f ab3d
00000100: 9759 2abe fa7d 0ebe bbcb f73c 84b9 76bf
00000110: 5911 e33e 58e8 87bf 1141 c23e 0168 43bf
00000120: f0d2 983e 1c09 09bf 2de7 b43e 7529 17be
00000130: 2788 ac3e e4eb f1bd 604a 6b3e e3ae 033c
00000140: 21d7 e13e 28f5 373e 7ddf 0b3f 0787 7d3e
00000150: 3246 c93e f751 833e f03b bd3e 185a 163e
00000160: a0a1 e63e 4fb0 d53e 5ca2 fabd 8da4 a13e
00000170: 8911 973d eadc 1d3f ec53 9bbe dca7 243f
00000180: 6611 7cbe 7cd4 c0bd 6594 abbf bd78 acbd
00000190: 2999 28bf 3f47 a7be ad0f edbe 76f4 b73e
000001a0: 66be d6be dd60 133f 4bf9 c4be 4b50 e03d
000001b0: bdbe 90be 53be 733d 882e 85be 485c 003e
000001c0: 1a54 8bbe 9945 a6be d0fc e2bd aa7a 94be
000001d0: d8e4 223b f4a2 bbbe 6617 3c3d 694b cebe
000001e0: 753e b93d c4b9 99be bae8 0e3f 6a3a 37bf
000001f0: c404 453f 450c 30bf 6f1d 803f c50e 51bf
00000200: daae 56be 8c5b c1bd c7cc 68bf 4ce4 93bf
00000210: c5d8 a3bf 535a 8cbf 966c 89bf 1db7 7fbf
00000220: 4c33 8dbf bff8 05bf 0b9a 97bf 6d6e f2be
00000230: 30de 1bbf 1ec6 013d caf7 c1be 32fc 383e
00000240: bb12 9fbe c436 6e3e 4ad9 debe 6633 223e
00000250: a74d c9bc 2361 c33e 7a86 0fbe a329 673e
00000260: 0ef7 143e a44a fc3e 273c 4dbe 2776 f33e
00000270: 5edb a0be f42d ff3e 8fe5 2d3d f497 1d3f
00000280: 0c63 6c3e 90d4 85bd a3fa fe3c 9c2d 0dbf
00000290: 2bd9 123f 0060 1ebf e77b 663f 4f3c 34bf
000002a0: bf39 573f dd4e 29bf 1064 3f3f 1673 eebe
000002b0: 2407 433f 354e d2be a1d3 db3e 7aab a7bd
000002c0: bf91 c83e bddf d4bc 0d2e 8c3d 57c1 bd3d
000002d0: d174 16be 7b9d ad3e 3da8 97be 8f59 7a3e
000002e0: 49ae 99be 7fa4 723e 7099 cabe ab43 5b3e
000002f0: 5624 b7be 5797 7c3d 7850 5dbe 813b 503d
00000300: a412 3b3e e81f 943e 8cf4 423e e854 21bf
00000310: fcbc fb3e 7598 e6be d21f 353f a0bc 7fbe
00000320: cc69 423e b7dc 16bf eed0 a53e bf8d 6bbe
00000330: ebbc 153f 4c4f 0cbe 90c7 e53e 8372 4bbe
00000340: a62a 963e 32ac 5fbe 0e6d debd d973 8cbe
00000350: 878f e1bd 49ab 43be a160 ebbe 70fe e8bc
00000360: 679b 4bbf 8db0 8abe b19c 23bf 153e 68be
00000370: b527 7cbf 9afb 4ebe 6cec 9dbf 7061 27bf
00000380: c03e 58bd e6b2 2dbe 69d3 e3bf 8bac 3cbf
00000390: 0096 aabf 64fc f6be 21eb 11bf 0657 253e
000003a0: bd45 b5be e562 86be c168 14bf f45b 33be
000003b0: e94b eebd 3961 fb3d a97e 083d 28c1 b5be
000003c0: b43a 843e 09a5 a2be 51e2 0cbd c620 f0be
000003d0: 76ef 9e3e 2e71 ddbe 4f5c 0d3f 2307 91be
000003e0: 61b9 443e 933f e3be 0a5b 053f 95e1 7abe
000003f0: 10dc 633f 560b 2abf 49e8 3c3f 3415 46bf
0.3075539 -0.05426997 0.63914734 -0.8560283 1.0730746 -0.7456665 0.7127625 -0.47933227
0.8822017 -0.36870882 0.86204916 -0.33886608 0.50548023 0.2657467 0.40032503 0.4919827
0.50118726 0.4133905 0.23557137 0.57422256 -0.29044992 0.6047278 -0.13426323 0.35973164
-0.07987764 0.38978824 -0.5666677 0.33515543 -0.63367194 0.41173288 -0.7903235 0.39476016
-0.13738576 0.2754553 -1.3008819 0.26654664 -0.90697837 0.50064707 -0.9181725 0.73553026
-0.39349368 0.25329718 -0.62195307 0.45010877 -0.51827127 0.52274036 -0.18456975 0.5133798
0.51789856 0.35193607 0.7300189 0.34737954 0.8181323 0.02711021 0.6232687 0.124052465
0.8052935 -0.12674557 0.6830794 -0.11244907 0.38916373 0.111460395 -0.02305843 0.08364819
-0.16635738 -0.13915244 0.030248513 -0.96376824 0.44349173 -1.0617781 0.37940267 -0.7633057
0.29848433 -0.53529525 0.35332623 -0.14761908 0.33697626 -0.11812571 0.2297759 0.008037302
0.44109443 0.17964613 0.5463789 0.2475854 0.39311367 0.25648472 0.3695979 0.14682806
0.45045185 0.41736075 -0.12237999 0.31570855 0.073763914 0.61665213 -0.30337465 0.64318633
-0.24616012 -0.09415528 -1.3404661 -0.084214665 -0.65858704 -0.32671544 -0.46301022 0.35928696
-0.41942137 0.57569677 -0.38471445 0.10952815 -0.28270522 0.05950768 -0.26012063 0.12535203
-0.27212602 -0.32474974 -0.110833764 -0.28999835 0.002485564 -0.3664776 0.045920752 -0.40291908
0.09045116 -0.3002454 0.5582386 -0.7157351 0.76960397 -0.6876872 1.0008982 -0.8166316
-0.20965138 -0.09441289 -0.90937465 -1.1554046 -1.2800528 -1.0965065 -1.0736263 -0.99888784
-1.103128 -0.5233268 -1.1843885 -0.47349873 -0.60885906 0.03168308 -0.3788436 0.18064955
-0.31068978 0.23263079 -0.43525153 0.1583992 -0.02457316 0.38160047 -0.14016142 0.22574477
0.14547369 0.49275696 -0.20042478 0.4755108 -0.31417364 0.49839747 0.042455252 0.6155999
0.23084658 -0.06534684 0.031125372 -0.5514772 0.5736262 -0.61865234 0.9003281 -0.70404524
0.8407249 -0.6613596 0.7476206 -0.4657218 0.7618277 -0.41075292 0.42934898 -0.081870034
0.39173695 -0.025985593 0.06844721 0.09265392 -0.14693 0.3390921 -0.29620543 0.24448226
-0.30015782 0.23695563 -0.3957019 0.21412532 -0.3576991 0.061667766 -0.21612728 0.050837997
0.1826883 0.28930593 0.190386 -0.6302018 0.4916762 -0.4503819 0.7075168 -0.24974298
0.18985671 -0.58930534 0.32385963 -0.2300329 0.5849139 -0.13702124 0.44878817 -0.19867902
0.29329413 -0.21843031 -0.10860644 -0.27432135 -0.11013704 -0.19108309 -0.4597216 -0.028441638
-0.79534 -0.27087823 -0.6391097 -0.22679932 -0.9849809 -0.20213166 -1.2337775 -0.6538305
-0.052794218 -0.16962776 -1.7798892 -0.7370078 -1.3327026 -0.48239434 -0.56999403 0.16146478
-0.3540477 -0.26247326 -0.5797234 -0.17515546 -0.116355725 0.12274403 0.033323918 -0.3549893
0.25826037 -0.31766537 -0.03439552 -0.46900004 0.3104207 -0.43250412 0.55218977 -0.28325757
0.19211341 -0.4438444 0.5209204 -0.24500115 0.89007664 -0.6642355 0.7379194 -0.77376103

sequential/dense_1/MatMul f4 [10, 24]
00000000: eb92 813f 85d8 23bd a196 2c3f e9db f03e
00000010: 31af a9be f886 613f d132 e1be e2f6 573f
00000020: 7e61 633f 8590 a2be ccac 143f 825e 33bd
00000030: 6a87 28bc 35d7 c43e cc7a 583f 0d3f b6be
00000040: f0cd 8d3d 9e45 e0be 9408 213f 5176 6c3f
00000050: 90fc 93be b966 d7bd 755a eabd 365b f4be
00000060: d766 903f ecf4 cfbc 40cb 933f b399 5f3f
00000070: 9cde 82be d40d 23be 8e2b 483e 97bf a03e
00000080: eea2 bf3e db43 ba3e bee4 bc3e d751 0f3e
00000090: f9d8 cbbd f090 993f 1400 a93e f1c6 ee3e
000000a0: e866 ae3e 6e28 963d 103a 9d3f 5951 0c3f
000000b0: aab6 68bd 7314 623e edcc bb3e a263 8cbe
000000c0: 7f37 57bf da31 833d 0455 d53e 2299 b63c
000000d0: af32 54bd 6914 503f ec68 9dbe 1b16 eb3e
000000e0: c7eb a3be 225d 17bd 7b47 f73e 673d 5e3c
000000f0: 9b9b 303d d171 90bf 2227 1e3f 9bc5 13be
00000100: a1dc 2f3e 8269 4dbe 80b3 c23e 96dd 9dbf
00000110: 293d 70be 1eb2 4d3d 5a31 13bc bca5 b3bd
00000120: c2b8 5f3f 53cd 4c3e 6c5a 053f 582c d73e
00000130: 1f2c a83e 88c8 8a3e 436c 343f 8a49 243f
00000140: 1bb3 22be d81f c93e fd8b d73e d1ef 153f
00000150: 96fc 8c3e 1b6b 523e 7ae0 023f 2a10 0a3f
00000160: e49c 4e3f d1b8 0c3e 5680 773f ae86 103f
00000170: d7c0 9cbd 1576 bd3e d0a6 d13e 5432 9cbe
00000180: 1b82 6cbd 4cf6 773f 17b8 273f 5db5 b03e
00000190: d368 9d3f 08e2 04bd 57d2 6c3f 9707 2a3e
000001a0: 5f73 20be 800c 833f a8a4 f93e b86e a33f
000001b0: c891 893f 4b17 45be b85d 0d3f 9176 a83e
000001c0: e9c2 843f b0f1 d43f a850 b53e 2b56 32bd
000001d0: fe5f 7e3f df65 533f 76c4 933f 09eb 813f
000001e0: f267 b83c 4531 123e 523a 42be c87e 41bd
000001f0: 70a1 cdbe 756a 883f 9c37 2bbe 9252 d7be
00000200: cd63 133f bcb8 363c f91a f33e f0c8 203f
00000210: 0172 123f 3b80 39bf d461 753e 81a7 05be
00000220: 7e9f c13e b7b5 813e 0c56 0bbf 3184 cf3e
00000230: 28cb 553f f5f1 a4bd aac5 d33c 90b7 493f
00000240: 18dd 223e 4378 f03d 2c86 c63c 2534 6fbe
00000250: ed4e ffbe 928d 5e3f 126a b23e 4960 62be
00000260: 10b9 c93e eb5e 8e3e 03a8 17bf 7be3 943e
00000270: f8f7 50bf 26ab 9ebe 634c 513e 57eb 753e
00000280: 6be6 973e 1dc6 3a3f b941 f0be 48cf 9dbe
00000290: 1da5 8a3f f0f3 bcbd b2b9 d1be afc7 d1be
000002a0: 32a5 6dba efe1 6b3f 9759 96bd 6af3 183f
000002b0: 4ed3 7d3f 7c7a 4d3f 372e fa3e 4fc8 2e3f
000002c0: ae05 793f 5149 373f 2046 363f d221 2a3f
000002d0: 1e5a 9c3f c773 1f3f d99d ef3e 3434 5c3f
000002e0: cc0e c43e 337c 533f 0de4 c53d a412 e03e
000002f0: 7248 523f 6be0 773f 9d61 543f 50ae 783f
00000300: 5bed 913e 6778 24bf 80f0 b83e 6dcf ed3e
00000310: 78d6 2bbf e051 633e cfac e1be c781 ffbd
00000320: 3d46 843e 9afd 23bf 76f4 db3e b209 aebe
00000330: cbfb 04bf a72d 1b3f 3d65 d63d 38df dcbe
00000340: 24c6 ecbe 0af6 a9bf 1825 273f 7427 e03e
00000350: 5322 75bf 0765 31bf bf06 20bf a10d a2bf
00000360: 23b1 d0bf fc36 fbbf e5f3 cabf 94e5 f1bf
00000370: 8674 0bc0 0201 08c0 21bd a43e dcab 0ec0
00000380: f5f4 24c0 9e9c efbf 43b0 dabf ea3a 27c0
00000390: 8a0e 92bf 0c96 fbbf 4ba4 a6bf 3315 27c0
000003a0: 0e69 11c0 2bc0 ccbf a860 aabf 8339 d8bf
000003b0: 7d61 2ebf 52da eabf cc13 fbbf b36a febf
1.0122961 -0.04000141 0.6741734 0.47042778 -0.33141473 0.8809657 -0.43984082 0.8436109
0.88820636 -0.31750885 0.5807617 -0.0437913 -0.0102861915 0.3844544 0.84562373 -0.3559498
0.06924045 -0.43803114 0.62903714 0.92368037 -0.28903627 -0.1051764 -0.114430346 -0.47725838
1.1281384 -0.025385343 1.1546402 0.873439 -0.25560462 -0.15923244 0.19547865 0.3139617
0.37428993 0.36379895 0.36893266 0.13996063 -0.099534936 1.1997356 0.33007872 0.46636155
0.34062886 0.0733193 1.2283344 0.54811627 -0.056814827 0.22078113 0.36679783 -0.27419764
-0.84069055 0.06405993 0.41666424 0.022289816 -0.05180615 0.81281143 -0.30744112 0.45915303
-0.3201582 -0.036954053 0.48296723 0.013564444 0.043117147 -1.1284734 0.6177846 -0.14430849
0.17174007 -0.2005978 0.38027573 -1.2333248 -0.23460831 0.050218694 -0.008983934 -0.08771846
0.87391293 0.200002 0.520911 0.4202602 0.32846162 0.27106118 0.70477694 0.6417471
-0.15888636 0.39282107 0.4209899 0.58569056 0.27536458 0.2054867 0.51123774 0.53930914
0.80708146 0.13742377 0.966802 0.56455505 -0.07653969 0.37004152 0.4094758 -0.30507147
-0.057741266 0.96860194 0.65515274 0.3451337 1.2297615 -0.032442123 0.92508453 0.16604458
-0.1566901 1.023819 0.48758435 1.2768164 1.0747614 -0.19247167 0.5522113 0.3290296
1.0371982 1.6636257 0.35413098 -0.043539207 0.9936522 0.8257732 1.154433 1.0149852
0.022510502 0.14276607 -0.1896756 -0.04724005 -0.4016223 1.0657488 -0.16720432 -0.42055184
0.5757416 0.011152443 0.47481516 0.62806606 0.57205206 -0.7246129 0.239631 -0.13052179
0.37816995 0.2533395 -0.5442817 0.40530542 0.83513117 -0.08053962 0.02585109 0.7879572
0.15904653 0.11741688 0.0242339 -0.23359735 -0.49864903 0.8693477 0.3484655 -0.22107042
0.39399004 0.27806792 -0.5924074 0.29079804 -0.8162837 -0.3098995 0.20439295 0.24015556
0.29667982 0.72958547 -0.46925142 -0.30822206 1.0831639 -0.09226215 -0.40961987 -0.4097266
-0.00090654485 0.9214162 -0.07341307 0.5974642 0.9915055 0.8026502 0.48863384 0.68274397
0.9727429 0.71596247 0.7120075 0.66457856 1.2215002 0.6228604 0.46800116 0.86017156
0.3829254 0.8261139 0.09662638 0.43764222 0.8214179 0.9682681 0.82961446 0.9714098
0.285014 -0.6424622 0.36120987 0.46447316 -0.6712413 0.22199202 -0.44077155 -0.12475925
0.25834838 -0.6405884 0.42959946 -0.33991772 -0.51946706 0.60616535 0.104685284 -0.43139052
-0.4624492 -1.327821 0.65290976 0.437801 -0.957555 -0.6929478 -0.62510294 -1.2660409
-1.6304058 -1.9626155 -1.5855681 -1.8898187 -2.178987 -2.1250615 0.32175544 -2.2292395
-2.577451 -1.8719671 -1.7085041 -2.6129708 -1.1410687 -1.9655166 -1.3018888 -2.610669
-2.272037 -1.5996145 -1.3310747 -1.6892551 -0.68117505 -1.8347876 -1.9615417 -1.9876312

sequential/dense_2/MatMul f4 [4, 10]
00000000: 16b2 08c0 41e7 71c0 d681 c6bf bba7 1ac0
00000010: 082c 1dc0 16f8 22c0 5750 0cc0 088f 38c0
00000020: 19dd 613f dd79 0e40 120a b43f cabb 663f
00000030: 8a0a de3f c6c5 83bc 42ab 48bf 8a00 ad3e
00000040: 3ff4 16be ce17 94be 3eb2 593f 4481 ddbf
00000050: 0de5 acbe 6c64 35bf 938a abbf 5d19 e8be
00000060: 8c01 3c3f a5e6 413f 99e1 923f 9d50 993f
00000070: de26 fbbf a8cb e0bf 6efc a6bc 7f44 1c3f
00000080: 3995 6ebe 8d51 863f 4687 8d3f 6850 01bf
00000090: ddad 0abf 62c4 3d3e 2aac 39bf 16d3 32bf
-2.1358695 -3.7797396 -1.5508373 -2.4164875 -2.4558125 -2.546392 -2.1924036 -2.88373
0.88227993 2.226188 1.4065573 0.90130293 1.7346966 -0.016085517 -0.7838632 0.33789474
-0.1474161 -0.28924412 0.850376 -1.7305074 -0.33768502 -0.70856357 -1.3401664 -0.4533185
0.7343986 0.7574256 1.1475097 1.1977726 -1.9621236 -1.7562151 -0.02038404 0.61042017
-0.23299111 1.0493637 1.1056907 -0.50513315 -0.54171544 0.18531945 -0.72528327 -0.6985334
